…
The higher level of complexity of DNN compared to logistic regression results in a model with higher predictive power, but is less interpretable. According to Occam there is a conflict between simplicity and accuracy.

![](@attachment/Clipboard_2020-07-31-12-35-42.png)
![](@attachment/Clipboard_2020-07-31-12-35-58.png)
![](@attachment/Clipboard_2020-07-31-12-36-05.png)

[@Breiman2001]

## Model Architecture 
```python
Model: "sequential"
_________________________________________________________________
Layer (type)                 Output Shape              Param #   
=================================================================
gaussian_noise (GaussianNois (None, 1951)              0         
_________________________________________________________________
reshape (Reshape)            (None, 1951, 1)           0         
_________________________________________________________________
separable_conv1d (SeparableC (None, 1951, 8)           40        
_________________________________________________________________
activation (selu)            (None, 1951, 8)           0         
_________________________________________________________________
mc_dropout (MCDropout)       (None, 1951, 8)           0         
_________________________________________________________________
separable_conv1d_1 (Separabl (None, 1951, 16)          384       
_________________________________________________________________
activation_1 (selu)          (None, 1951, 16)          0         
_________________________________________________________________
flatten (Flatten)            (None, 31216)             0         
_________________________________________________________________
mc_dropout_1 (MCDropout)     (None, 31216)             0         
_________________________________________________________________
dense (Dense)                (None, 128)               3995776   
_________________________________________________________________
activation_2 (selu)          (None, 128)               0         
_________________________________________________________________
mc_dropout_2 (MCDropout)     (None, 128)               0         
_________________________________________________________________
dense_1 (Dense)              (None, 1)                 128       
_________________________________________________________________
activation_3 (linear)        (None, 1)                 0         
=================================================================
Total params: 3,996,328
Trainable params: 3,996,328
Non-trainable params: 0
________________________

Model: "sequential"
_________________________________________________________________
Layer (type)                 Output Shape              Param #   
=================================================================
gaussian_noise (GaussianNois (None, 1168)              0         
_________________________________________________________________
reshape (Reshape)            (None, 1168, 1)           0         
_________________________________________________________________
separable_conv1d (SeparableC (None, 1168, 8)           40        
_________________________________________________________________
separable_conv1d_1 (Separabl (None, 1168, 16)          384       
_________________________________________________________________
flatten (Flatten)            (None, 18688)             0         
_________________________________________________________________
mc_dropout (MCDropout)       (None, 18688)             0         
_________________________________________________________________
dense (Dense)                (None, 128)               2392192   
_________________________________________________________________
mc_dropout_1 (MCDropout)     (None, 128)               0         
_________________________________________________________________
dense_1 (Dense)              (None, 1)                 128       
=================================================================
Total params: 2,392,744
Trainable params: 2,392,744
Non-trainable params: 0
_________________________________________________________________
```

## architecture - summary

#### input size

The input size is determined by the number of wavelenghts of the spectra used for analysis. As we are working with spectra, only containing absorbance and wavenumbers, the data can be treated as one-dimensional pictures. 
…
